final_income_prediction_model.pth (torch, 39396 bytes, 6 tensors)

fc1.weight f4 [64, 108]
0	0xbc327d2c	-0.010894101
1	0x3ae9d32c	0.0017839423
2	0xbb74cb24	-0.0037352527
3	0xbb3d4aba	-0.0028883652
4	0xbb27fcd3	-0.0025632873
5	0xbc6c9c6a	-0.014441589
6	0x3a84514d	0.001009503
7	0x3c4ee683	0.0126282
8	0xbb0e8d02	-0.0021751528
9	0xbb182d9b	-0.0023220542
10	0xbc22e306	-0.009941822
11	0x3a98675e	0.0011627486
12	0xbba044de	-0.004891022
13	0x3c106fd1	0.008815722
14	0x3ccce8b9	0.025013315
15	0x3c313e9e	0.010818152
16	0xbb752817	-0.0037407929
17	0x3b469b41	0.003030494
18	0xb8bc1023	-8.967544e-05
19	0xbbb57a73	-0.0055382787
20	0x3b926701	0.0044678454
21	0x3c84df12	0.01621965
22	0x3b33050f	0.0027316248
23	0x3abf775b	0.0014607714
24	0x3a331208	0.0006830995
25	0xbb060164	-0.0020447606
26	0xbc601437	-0.013676695
27	0xbb2154f8	-0.0024617296
28	0xba789292	-0.000948229
29	0xbaacb97d	-0.0013177838
30	0x3be419c5	0.00696108
31	0x3d28a63d	0.041174162
32	0x3c150100	0.009094477
33	0xbda2aebe	-0.07943486
34	0x3ca5f06e	0.020256247
35	0x3d19d6fc	0.03755854
36	0x3c1b87e7	0.009492851
37	0x3ca1fb5e	0.019773182
38	0x3a7444b7	0.00093181006
39	0x3c81e985	0.015858421
40	0x3afc06aa	0.001922806
41	0xbc8eaf11	-0.017417463
42	0xbb093e86	-0.0020941808
43	0xbb2db3b3	-0.0026504814
44	0xbbbf820e	-0.005844361
45	0xbacedee5	-0.001578298
46	0x3be59eb1	0.007007443
47	0xbbcccfa8	-0.0062503405
48	0xbb37aeeb	-0.0028027843
49	0x3c500fd6	0.012699088
50	0xbb9fac68	-0.0048728473
51	0x3ab53338	0.0013824468
52	0x3bc6c7f6	0.0060663177
53	0xbdfbfea3	-0.123044275
54	0x3d3f09b6	0.04664012
55	0x3cb3112c	0.021858774
56	0x3d2d2533	0.042271804
57	0x3d1706b3	0.036871623
58	0x3d36601b	0.044525247
59	0x39ae9e6f	0.00033305908
60	0x3ca1d998	0.019757077
61	0x3a3fd83d	0.0007318294
62	0xbc017029	-0.007900276
63	0xbc11dd97	-0.008902929
64	0x3d6a821c	0.05725299
65	0xbd6a821c	-0.05725299
66	0xb9e40764	-0.00043493055
67	0x3bb9fe65	0.005676078
68	0xbbe5ec3f	-0.007016688
69	0xbb5412c7	-0.0032359825
70	0x38095444	3.2741824e-05
71	0xbb43ff08	-0.002990665
72	0x3cc997b6	0.024608474
73	0x3bce428f	0.0062945555
74	0x3a3df63b	0.0007246469
75	0xbbb797f7	-0.0056028324
76	0xbaba52fc	-0.0014215405
77	0x3ca18540	0.019716859
78	0xbb953e4c	-0.0045545455
79	0xb9427f01	-0.00018548594
80	0xbab74d65	-0.0013984857
81	0x3c9caae1	0.01912445
82	0xbb0d5e1a	-0.0021570981
83	0xbb05ce4d	-0.0020417154
84	0xbacae1e3	-0.0015478696
85	0xbaf37722	-0.0018574933
86	0x3b104a4c	0.002201694
87	0xba89ba9b	-0.0010507883
88	0xbafbcbce	-0.0019210519
89	0xbb28ae84	-0.0025738785
90	0x3c786327	0.0151603585
91	0xbb822490	-0.0039716437
92	0xbbe5ae21	-0.007009283
93	0xbb9c9ce8	-0.004779447
94	0x3c673f18	0.014114164
95	0x3c308d44	0.010775868
96	0x3ca3dce5	0.020002792
97	0x3c035a7c	0.008017179
98	0xbb6e4751	-0.0036358426
99	0xbac74e52	-0.0015205836
100	0xbb463127	-0.00302417
101	0xbbc15f7c	-0.005901275
102	0xbb90f901	-0.004424215
103	0x3b2d3240	0.0026427656
104	0x3a5d2a8f	0.00084368227
105	0xbc39f21c	-0.011349227
106	0xbad6983c	-0.0016372274
107	0xbad7583c	-0.0016429494
108	0xbc88c5ba	-0.016695846
109	0x3b98200f	0.0046424936
110	0xbb8a4ad3	-0.0042203455
111	0xbbdacb12	-0.00667704
112	0xbb411377	-0.0029461065
113	0xbbc1d0ef	-0.0059147994
114	0xba8c833a	-0.0010720261
115	0x3c873e53	0.01650921
116	0xba9b61af	-0.0011854674
117	0xbb03a476	-0.002008704
118	0xbbb999d6	-0.0056640906
119	0xbba5a67f	-0.0050552483
120	0xbbb6b5ee	-0.005575887
121	0x3bfba402	0.0076794634
122	0x3ccaf9ed	0.024777377
123	0x3b50be92	0.003185187
124	0xba437fb0	-0.00074576866
125	0x3a9054e2	0.0011011625
126	0xbbdafba9	-0.0066828323
127	0xbb0dad82	-0.0021618311
128	0x3bdc18ec	0.006716838
129	0x3c2fae3c	0.010722693
130	0x3b344c75	0.0027511392
131	0x3bf2d1a4	0.007410245
132	0x3ba5a108	0.005054597
133	0xbbb28ace	-0.0054486757
134	0xbc1c2444	-0.009530131
135	0xbab250cc	-0.0013604402
136	0x3c107b48	0.008818455
137	0xbbc6e34c	-0.0060695764
138	0xbadab006	-0.0016684539
139	0x3d372a6b	0.044718187
140	0xbb3abd79	-0.0028494282
141	0xbdb0d6c3	-0.086347125
142	0x3c918c82	0.017767195
143	0x3d364fb2	0.044509597
144	0x3b8b1a12	0.004245051
145	0x3c887ba1	0.016660513
146	0xba99f1a2	-0.0011744986
147	0x3c92f988	0.017941251
148	0x3a9b48ca	0.0011847254
149	0xbc03fa0f	-0.008055224
150	0xbbaf22a8	-0.0053447075
151	0x3a4ab8e4	0.00077332393
152	0x3b625d7d	0.0034540587
153	0x3c01e934	0.007929135
154	0xbbc4c193	-0.006004521
155	0xbb76eec4	-0.0037678936
156	0xba9dcf87	-0.0012039997
157	0x3c4bf36e	0.012448175
158	0xba4c2eb5	-0.00077889423
159	0xbafc03e7	-0.0019227237
160	0xbc318b08	-0.01083637
161	0xbde83834	-0.11338845
162	0x3d66c276	0.056337796
163	0x3c1a6d0a	0.009425411
164	0x3d2a3c62	0.04156149
165	0x3d00bd08	0.031430274
166	0x3cd72c1a	0.026266146
167	0x3ba9f84e	0.005187071
168	0x3c14a728	0.009073056
169	0x3b3ee758	0.002912959
170	0x3ba7e5c2	0.005123825
171	0xbc2311f5	-0.009953012
172	0x3d2d6df4	0.042341188
173	0xbd2d6df4	-0.042341188
174	0xbbab9c81	-0.0052371626
175	0x3bab3734	0.0052250866
176	0xbbc6ebab	-0.0060705743
177	0xbabb4b14	-0.0014289343
178	0x3b703ef8	0.0036658626
179	0x3c211c93	0.009833473
180	0x3cd0231a	0.025407363
181	0x3bd79aac	0.0065797176
182	0x3a93107d	0.0011220124
183	0xbbbb5efe	-0.005718111
184	0xba03a208	-0.0005021398
185	0x3c9e757d	0.019343132
186	0x3c4cd9ce	0.012503101
187	0x3c6e0675	0.014527907
188	0xbb1f2c6b	-0.002428795
189	0xba4aaf35	-0.00077317964
190	0x3b5d9189	0.003380867
191	0xb9bb2d6d	-0.00035701264
192	0xbb195ff0	-0.002340313
193	0x3a5243e2	0.00080209796
194	0xbb43d578	-0.0029881876
195	0xba970a2e	-0.001152342
196	0xbb51cfe9	-0.0032014793
197	0xbb7b9032	-0.0038385508
198	0xbb2031cd	-0.0024443746
199	0x3c2d9eac	0.010596912
200	0xbb74ca79	-0.0037352128
201	0xbb8cc182	-0.004295529
202	0x3c857775	0.016292313
203	0xbb8c362e	-0.0042789197
204	0x3c9b1596	0.018931191
205	0x3bf9f119	0.007627618
206	0x3b7d3712	0.003863756
207	0xba8deb57	-0.0010827583
208	0xbb2d0602	-0.0026401286
209	0xbbb5fdff	-0.0055539603
210	0xba6aa86f	-0.000895149
211	0x3a9fd086	0.0012192882
212	0xba1498f6	-0.0005668545
213	0xbc579be8	-0.01315973
214	0xb8a4d23e	-7.85929e-05
215	0xba8f3d70	-0.0010928344
216	0x3c2475d5	0.010037859
217	0xbbe73491	-0.007055827
218	0x3aac85ac	0.0013162396
219	0x3b3c325c	0.002871654
220	0x3b09a325	0.0021001783
221	0x3c25a2ec	0.010109644
222	0x3b2ed275	0.0026675735
223	0x3baf98e9	0.0053588045
224	0x3b874aa9	0.004128773
225	0xbaba5966	-0.0014217317
226	0xbb8b643c	-0.004253892
227	0x3b6083b8	0.0034258198
228	0xbaf641ee	-0.0018787959
229	0xbb15c58c	-0.0022853343
230	0xbb19d6f5	-0.0023474072
231	0x3bf6d485	0.0075326585
232	0xbc237edf	-0.009978979
233	0xbbbfc1d4	-0.0058519635
234	0xbbd3693c	-0.006451754
235	0x3c06bf96	0.008224389
236	0x3b273f5b	0.002551994
237	0x3bb55380	0.0055336356
238	0xbadd00a2	-0.001686115
239	0xbb77c577	-0.0037806907
240	0x3c1190a2	0.008884581
241	0x3aed8404	0.0018121009
242	0xbc207e15	-0.009795685
243	0x3a8e4bc5	0.0010856321
244	0xbbd11b28	-0.006381411
245	0xbc0afb0e	-0.008482708
246	0x3bccc677	0.006249245
247	0x3ae1f78a	0.001723991
248	0x3bd15867	0.006388712
249	0x3c6b8013	0.014373797
250	0xbb66d83b	-0.0035224098
251	0xbc4c63d3	-0.012474972
252	0xbbfd6cf6	-0.0077339364
253	0xbb8ee73b	-0.004361061
254	0x3b25cf7a	0.0025300668
255	0xbbfc4207	-0.0076983008

fc1.bias f4 [64]
0	0x3e1c5120	0.15265322
1	0x3e1175b7	0.14205061
2	0x3e343074	0.17596608
3	0x3e16463f	0.14675234
4	0x3e115d01	0.14195634
5	0x3e0cacde	0.13737819
6	0x3e149cdb	0.1451296
7	0x3e2c848a	0.16847435
8	0x3e11ec68	0.14250338
9	0x3e0e6c43	0.13908486
10	0x3e685227	0.22687589
11	0x3e573b39	0.21018685
12	0x3e11a061	0.14221336
13	0x3e7701ff	0.24121855
14	0x3e22593e	0.15854356
15	0x3e068aa0	0.13138819
16	0x3e26030b	0.16212098
17	0x3e1acde7	0.15117608
18	0x3db146f9	0.08656115
19	0x3e184ad1	0.1487229
20	0x3e11f691	0.14254214
21	0x3e1348fd	0.14383312
22	0x3e1e8a55	0.15482457
23	0x3dc4a5e0	0.09601951
24	0x3dcf43d3	0.10120358
25	0x3e1085b1	0.14113499
26	0x3dd569b2	0.104205504
27	0x3e2d90e3	0.16949801
28	0x3d9eff61	0.077635534
29	0x3e0b9d87	0.1363431
30	0x3e42c44f	0.19020198
31	0x3e0851b1	0.13312413
32	0x3e25876c	0.1616494
33	0x3e29bebc	0.16576666
34	0x3e1ae78c	0.1512739
35	0x3e24c650	0.16091275
36	0x3e14cbd9	0.14530887
37	0x3e0305d4	0.12795192
38	0x3e17b165	0.14813764
39	0x3e39ed08	0.18156826
40	0x3e456382	0.1927624
41	0x3dc4eea1	0.09615827
42	0x3e2018b5	0.15634425
43	0x3dbe1a5b	0.09282371
44	0x3e1afa83	0.15134625
45	0x3db6c506	0.08924298
46	0x3e0f362c	0.13985509
47	0x3df8a805	0.12141422
48	0x3e0f18ed	0.13974352
49	0x3e38bb7d	0.18040271
50	0x3e0b5932	0.13608244
51	0x3e046566	0.12929305
52	0x3e6bc9d3	0.23026209
53	0x3e1d8f2f	0.15386651
54	0x3deb5e41	0.11492587
55	0x3e0b12c9	0.13581385
56	0x3dd10549	0.10206086
57	0x3e0a085c	0.13479751
58	0x3e39a635	0.18129809
59	0x3e40d279	0.18830289
60	0x3e111b0d	0.14170475
61	0x3e043868	0.12912142
62	0x3e4bf7f0	0.199188
63	0x3e062abb	0.13102238

fc2.weight f4 [32, 64]
0	0x3d318717	0.043341722
1	0x3d28fa22	0.04125417
2	0x3d115105	0.035477657
3	0x3d2260e8	0.0396432
4	0x3d2b416c	0.041810438
5	0x3d2b3011	0.041793887
6	0x3d1b3fd5	0.03790267
7	0x3d32edb0	0.043683708
8	0x3d1aba44	0.037775293
9	0x3d2af983	0.04174186
10	0x3d26bd1c	0.040707693
11	0x3d2951e9	0.04133788
12	0x3d2c1674	0.0420136
13	0x3d3f2feb	0.046676558
14	0x3d264703	0.040595066
15	0x3cf0feea	0.029418427
16	0x3d46c961	0.048531894
17	0x3d29e5f1	0.041479055
18	0x3ce28771	0.027652474
19	0x3d3f1021	0.04664624
20	0x3d2af7ae	0.041740112
21	0x3d2aac83	0.041668426
22	0x3d2530f4	0.04032989
23	0x3d17776a	0.036979116
24	0x3d120c91	0.035656516
25	0x3d248002	0.04016114
26	0x3d2678dd	0.040642608
27	0x3d55b779	0.052176926
28	0x3d0ac1f1	0.033876363
29	0x3d23aa12	0.039957114
30	0x3d241dfa	0.04006765
31	0x3d29836e	0.041385107
32	0x3d2a6f7e	0.041610233
33	0x3d39b6e0	0.04534042
34	0x3d2a4b4a	0.041575707
35	0x3d324217	0.04352006
36	0x3d1dc714	0.038519934
37	0x3d16c96b	0.03681318
38	0x3d3cf392	0.046130724
39	0x3d410014	0.047119215
40	0x3d0f81be	0.03503584
41	0x3d0ae6d4	0.03391154
42	0x3d23030a	0.03979782
43	0x3d0e2f2a	0.034712948
44	0x3d2232c5	0.0395992
45	0x3d184272	0.037172742
46	0x3d210384	0.039309993
47	0x3d12fd8d	0.035886336
48	0x3d22d6b4	0.039755538
49	0x3d442924	0.047890797
50	0x3d1585cf	0.036504563
51	0x3d2b64af	0.041844066
52	0x3d33efc4	0.04392983
53	0x3d2e77b8	0.04259464
54	0x3d2f83bb	0.042850237
55	0x3d1a8aad	0.037729908
56	0x3d247e3c	0.04015945
57	0x3d25461e	0.040350072
58	0x3d3b1dc1	0.045682672
59	0x3d2498b2	0.040184684
60	0x3d2db7be	0.04241156
61	0x3d077a68	0.03307572
62	0x3d187dcd	0.037229348
63	0x3d156c3d	0.036480177
64	0x3d279336	0.040911876
65	0x3d192fb0	0.037398994
66	0x3cf143d2	0.029451285
67	0x3d0a54ce	0.033772282
68	0x3d135ab7	0.035975184
69	0x3d1b7075	0.037949044
70	0x3d165e65	0.036711115
71	0x3d2a6d73	0.041608285
72	0x3d025db4	0.031827644
73	0x3d151198	0.03639373
74	0x3d0c21ac	0.0342118
75	0x3d107761	0.0352701
76	0x3d0d4e57	0.03449854
77	0x3d1e6cf2	0.038678117
78	0x3d1743ad	0.036929775
79	0x3ce47c45	0.027891288
80	0x3d39db92	0.045375414
81	0x3d262a19	0.04056749
82	0x3cdaf070	0.026725978
83	0x3d1f95d4	0.038961247
84	0x3d1e9807	0.038719203
85	0x3d05a17b	0.032624703
86	0x3d172a8c	0.03690581
87	0x3d04f94b	0.032464307
88	0x3cf94c08	0.030431762
89	0x3d1976cd	0.037466813
90	0x3d10c5ae	0.035344772
91	0x3d3c5249	0.04597691
92	0x3cd97452	0.026544724
93	0x3d130d19	0.035901163
94	0x3d1a7dc5	0.0377176
95	0x3d0d9909	0.034569774
96	0x3d1831bb	0.0371568
97	0x3d22d361	0.039752368
98	0x3d1ca424	0.038242474
99	0x3d123872	0.03569836
100	0x3d10c89b	0.035347562
101	0x3d1aaecf	0.037764367
102	0x3d23c822	0.039985783
103	0x3d2b7a27	0.04186454
104	0x3d00e9bf	0.031472918
105	0x3cfc6e0e	0.030814197
106	0x3d151326	0.036395214
107	0x3d07ee56	0.03318628
108	0x3d0181cc	0.031617925
109	0x3ce496ef	0.027904002
110	0x3d0182f7	0.03161904
111	0x3cfa421f	0.030549107
112	0x3d1828db	0.037148338
113	0x3d3d4f61	0.04621828
114	0x3d01c667	0.03168335
115	0x3d121e54	0.035673454
116	0x3d1ca98b	0.038247626
117	0x3d1b420b	0.03790478
118	0x3d017c4c	0.03161268
119	0x3d152dc9	0.036420617
120	0x3d126ff4	0.035751298
121	0x3d23e5d9	0.04001412
122	0x3d27431f	0.040835496
123	0x3d04c746	0.032416604
124	0x3d193cb7	0.037411418
125	0x3cedec6c	0.029043399
126	0x3d0d85c8	0.034551412
127	0x3d0c908f	0.03431755
128	0x3d2cb6e6	0.042166613
129	0x3d16a9e9	0.036783133
130	0x3d0c74e5	0.034291167
131	0x3d174010	0.03692633
132	0x3d1da7e6	0.0384902
133	0x3d29b469	0.04143182
134	0x3d165d9c	0.036710367
135	0x3d2a76cf	0.04161721
136	0x3d151806	0.036399864
137	0x3d21969f	0.039450284
138	0x3d23501a	0.039871313
139	0x3d1f015d	0.03881966
140	0x3d1d87b6	0.038459502
141	0x3d315ff8	0.043304414
142	0x3d2d65a9	0.04233328
143	0x3cecf936	0.028927427
144	0x3d321762	0.04347933
145	0x3d271ce8	0.04079905
146	0x3cebb7c9	0.028774159
147	0x3d2592c9	0.04042319
148	0x3d1909fe	0.037363045
149	0x3d130fdc	0.035903797
150	0x3d1d9b05	0.038477916
151	0x3d006cbf	0.03135371
152	0x3d051c80	0.032497883
153	0x3d201696	0.03908404
154	0x3d133cbc	0.035946593
155	0x3d3929f8	0.04520604
156	0x3ce27371	0.027642937
157	0x3d1eae33	0.038740348
158	0x3d0efabe	0.034907095
159	0x3d0f9f70	0.03506416
160	0x3d23badf	0.039973136
161	0x3d2fe994	0.042947367
162	0x3d31b3f5	0.04338451
163	0x3d220c3d	0.039562453
164	0x3d10fe08	0.035398513
165	0x3d1166e5	0.03549852
166	0x3d365ab8	0.04452011
167	0x3d3be14b	0.045869153
168	0x3d076ec2	0.03306461
169	0x3d0557e9	0.03255454
170	0x3d1b2bc5	0.03788354
171	0x3d033c40	0.03203988
172	0x3d11eb37	0.03562471
173	0x3d0edc1d	0.034877885
174	0x3d026394	0.031833246
175	0x3d07b5a4	0.03313221
176	0x3d1c3fae	0.038146667
177	0x3d4561aa	0.048188843
178	0x3cfec3f3	0.031099295
179	0x3d1df65b	0.03856502
180	0x3d27a97f	0.04093313
181	0x3d13cfef	0.036086973
182	0x3d199f09	0.037505183
183	0x3d134476	0.03595396
184	0x3d1ee1d6	0.038789593
185	0x3d1c7b53	0.03820355
186	0x3d404cb7	0.04694816
187	0x3d19940e	0.03749471
188	0x3d18246f	0.03714412
189	0x3d06f953	0.032952618
190	0x3d14c539	0.0363209
191	0x3d051e16	0.032499395
192	0x3d42df1a	0.047576047
193	0x3d38e634	0.045141414
194	0x3d09befc	0.033629403
195	0x3d1a849e	0.03772413
196	0x3d2a9434	0.041645244
197	0x3d2604c4	0.04053189
198	0x3d171826	0.036888264
199	0x3d2bad86	0.04191353
200	0x3d119733	0.035544585
201	0x3d36b82f	0.044609245
202	0x3d27d98d	0.040978957
203	0x3d173a2f	0.036920723
204	0x3d288854	0.041145638
205	0x3d2a5fa4	0.041595116
206	0x3d1f304f	0.03886443
207	0x3ce48989	0.027897613
208	0x3d4ccabe	0.049998038
209	0x3d39e5f5	0.04538532
210	0x3cee7ab6	0.029111248
211	0x3d3c42e1	0.04596222
212	0x3d373ab7	0.04473373
213	0x3d177b98	0.036983103
214	0x3d25c51b	0.040471178
215	0x3cf947c3	0.030429726
216	0x3cf48a5a	0.029851127
217	0x3d3be8ef	0.04587644
218	0x3d177c55	0.036983807
219	0x3d5d5f63	0.054046046
220	0x3cf6ead5	0.030141274
221	0x3d2a0e34	0.04151745
222	0x3d1ce3de	0.03830325
223	0x3d253e3d	0.04034256
224	0x3d220a67	0.0395607
225	0x3d379262	0.044817336
226	0x3d3c5cfe	0.04598712
227	0x3d2e9378	0.042621106
228	0x3d1ecc7e	0.038769238
229	0x3d21f05d	0.03953587
230	0x3d35f5e0	0.044423938
231	0x3d414471	0.04718441
232	0x3d12540d	0.03572469
233	0x3d02b925	0.03191485
234	0x3d217772	0.039420553
235	0x3d031ece	0.0320118
236	0x3d1c96bc	0.03822969
237	0x3cea437a	0.028596628
238	0x3d1bffe3	0.03808583
239	0x3d0d5f48	0.034514695
240	0x3d304990	0.043038905
241	0x3d329eed	0.043608595
242	0x3d21643b	0.039402228
243	0x3d266d61	0.040631656
244	0x3d363a88	0.044489413
245	0x3d208daf	0.03919762
246	0x3d0f24e1	0.03494728
247	0x3d1e4443	0.03863932
248	0x3d0f7182	0.03502036
249	0x3d26dd90	0.040738642
250	0x3d30ca37	0.043161597
251	0x3d1ec868	0.03876534
252	0x3d3f4ad5	0.046702225
253	0x3d0d0a50	0.034433663
254	0x3d185ef3	0.037199926
255	0x3d19fb8f	0.03759342

fc2.bias f4 [32]
0	0x3e4d3c49	0.20042528
1	0x3e36fbae	0.17869446
2	0x3e3feff4	0.18743879
3	0x3e4aa0a7	0.19787847
4	0x3e420da6	0.18950519
5	0x3e4015e1	0.18758346
6	0x3e45855b	0.19289152
7	0x3e3f3cf3	0.18675594
8	0x3e44624e	0.19178125
9	0x3e45114e	0.19244882
10	0x3e439d5c	0.19102997
11	0x3e4e37e7	0.20138513
12	0x3e48eef3	0.19622402
13	0x3e477d3d	0.19481368
14	0x3e43b222	0.19110921
15	0x3e50a563	0.2037559
16	0x3e45cd40	0.19316578
17	0x3e4be827	0.19912778
18	0x3e48cb6d	0.19608851
19	0x3e4f982c	0.20272893
20	0x3e33ab91	0.17545916
21	0x3e549f2b	0.20763843
22	0x3e3e6e9f	0.18596886
23	0x3e4415db	0.19148962
24	0x3e48b81c	0.19601482
25	0x3e4af2c0	0.19819164
26	0x3e43c6bc	0.1911878
27	0x3e5b554b	0.21419255
28	0x3e489efe	0.195919
29	0x3e44730a	0.19184509
30	0x3e435d20	0.19078493
31	0x3e5ae807	0.21377574

fc3.weight f4 [2, 32]
0	0x3e897561	0.26847365
1	0x3e73d7f9	0.23812856
2	0x3e8143a2	0.25246912
3	0x3e8705f8	0.2637174
4	0x3e81ab6a	0.2532609
5	0x3e81799c	0.25288093
6	0x3e843f40	0.25829506
7	0x3e80f54f	0.25187156
8	0x3e836dfd	0.25669852
9	0x3e8446ad	0.2583517
10	0x3e82eeb5	0.25572744
11	0x3e8a0f90	0.26964998
12	0x3e85f8d3	0.261664
13	0x3e85ebea	0.2615655
14	0x3e820ff6	0.25402802
15	0x3e8ab2dd	0.27089587
16	0x3e830591	0.25590184
17	0x3e888855	0.26666513
18	0x3e86959e	0.26286024
19	0x3e8afe05	0.27146927
20	0x3e70bbb0	0.23509097
21	0x3e8eff0a	0.27928954
22	0x3e7e00cc	0.24804991
23	0x3e837234	0.25673068
24	0x3e868853	0.26275882
25	0x3e876959	0.2644756
26	0x3e83921c	0.2569741
27	0x3e92ad03	0.28647622
28	0x3e8677c5	0.26263252
29	0x3e82dd09	0.2555926
30	0x3e824777	0.25445148
31	0x3e923bcb	0.28561243
32	0xbe898c2a	-0.2686475
33	0xbe740156	-0.23828635
34	0xbe81563a	-0.25261098
35	0xbe871cf6	-0.26389283
36	0xbe81c318	-0.25344157
37	0xbe818e9f	-0.25304124
38	0xbe8454d0	-0.25845957
39	0xbe81088a	-0.25201827
40	0xbe8385a9	-0.25687912
41	0xbe845eb0	-0.2585349
42	0xbe8304a6	-0.25589484
43	0xbe8a22af	-0.26979586
44	0xbe860d7a	-0.26182157
45	0xbe860085	-0.2617227
46	0xbe822a32	-0.25422817
47	0xbe8ac8cd	-0.27106324
48	0xbe831822	-0.2560435
49	0xbe889ed6	-0.26683682
50	0xbe86a70f	-0.2629933
51	0xbe8b1545	-0.27164665
52	0xbe70e3a7	-0.23524342
53	0xbe8f1539	-0.2794588
54	0xbe7e2a18	-0.24820745
55	0xbe838574	-0.25687754
56	0xbe869e71	-0.26292756
57	0xbe877f6e	-0.2646441
58	0xbe83aa5f	-0.2571592
59	0xbe92c591	-0.28666356
60	0xbe868f1f	-0.26281068
61	0xbe82f5c7	-0.25578138
62	0xbe825f58	-0.25463367
63	0xbe924fa0	-0.28576374

fc3.bias f4 [2]
0	0x3ee40f8d	0.44543114
1	0xbee424bc	-0.44559276
